…
&lt;p&gt;&lt;strong&gt;rescale&lt;/strong&gt;: 重缩放因子。默认为 None。如果是 None 或 0，不进行缩放，否则将数据乘以所提供的值（在应用任何其他转换之前）&lt;/p&gt;
&lt;p&gt;置放缩因子为1/255，把像素值放缩到0和1之间有利于模型的收敛，避免神经元“死亡”。&lt;/p&gt;
&lt;p&gt;创建train_generator和testing_generator&lt;/p&gt;
&lt;h3 id=&#34;2定义网络&#34;&gt;2.定义网络&lt;/h3&gt;
&lt;p&gt;定义keras网络,利用Sequential搭建:
input_tensor --&amp;gt; Conv2D_1 --&amp;gt; Conv2D_2 --&amp;gt; Conv2D_3 --&amp;gt; Flatten --&amp;gt; Dense --&amp;gt; output_tensor&lt;/p&gt;
&lt;pre tabindex=&#34;0&#34;&gt;&lt;code&gt;Layer (type)                 Output Shape              Param #   
=================================================================
input_tensor (Conv2D)        (None, 28, 28, 20)        520       
_________________________________________________________________
activation (Activation)      (None, 28, 28, 20)        0         
_________________________________________________________________
max_pooling2d (MaxPooling2D) (None, 14, 14, 20)        0         
_________________________________________________________________
conv2d (Conv2D)              (None, 14, 14, 20)        10020     
_________________________________________________________________
activation_1 (Activation)    (None, 14, 14, 20)        0         
_________________________________________________________________
max_pooling2d_1 (MaxPooling2 (None, 7, 7, 20)          0         
_________________________________________________________________
conv2d_1 (Conv2D)            (None, 7, 7, 20)          10020     
_________________________________________________________________
activation_2 (Activation)    (None, 7, 7, 20)          0         
_________________________________________________________________
flatten (Flatten)            (None, 980)               0         
_________________________________________________________________
dense (Dense)                (None, 10)                9810      
_________________________________________________________________
output_tensor (Dense)        (None, 3)                 33        
=================================================================
Total params: 30,403
Trainable params: 30,403
Non-trainable params: 0

&lt;/code&gt;&lt;/pre&gt;&lt;h3 id=&#34;3训练网络&#34;&gt;3.训练网络&lt;/h3&gt;
&lt;p&gt;&lt;code&gt;model.fit_generator&lt;/code&gt;&lt;/p&gt;
&lt;h3 id=&#34;4推理&#34;&gt;4.推理&lt;/h3&gt;
&lt;p&gt;利用&lt;code&gt;load_model&lt;/code&gt;读取网络
利用&lt;code&gt;np.asarray&lt;/code&gt;转numpy的asarray格式&lt;/p&gt;
…
